…
          "base_uri": "https://localhost:8080/"
        },
        "outputId": "9eac33b2-025a-4128-d313-472b6c0cab86"
      },
      "source": [
        "def initialize_weights(m):\n",
        "    if hasattr(m, 'weight') and m.weight.dim() > 1:\n",
        "        nn.init.xavier_uniform_(m.weight.data)\n",
        "\n",
        "model.apply(initialize_weights)"
      ],
      "execution_count": null,
      "outputs": [
        {
          "output_type": "execute_result",
          "data": {
            "text/plain": [
              "Transformer(\n",
              "  (encoder): Encoder(\n",
              "    (tok_embedding): Embedding(7853, 256)\n",
              "    (pos_embedding): Embedding(100, 256)\n",
              "    (layers): ModuleList(\n",
              "      (0-2): 3 x EncoderLayer(\n",
              "        (self_attn_layer_norm): LayerNorm((256,), eps=1e-05, elementwise_affine=True)\n",
              "        (ff_layer_norm): LayerNorm((256,), eps=1e-05, elementwise_affine=True)\n",
              "        (self_attention): MultiHeadAttentionLayer(\n",
              "          (fc_q): Linear(in_features=256, out_features=256, bias=True)\n",
              "          (fc_k): Linear(in_features=256, out_features=256, bias=True)\n",
              "          (fc_v): Linear(in_features=256, out_features=256, bias=True)\n",
              "          (fc_o): Linear(in_features=256, out_features=256, bias=True)\n",
              "          (dropout): Dropout(p=0.1, inplace=False)\n",
              "        )\n",
              "        (positionwise_feedforward): PositionwiseFeedforwardLayer(\n",
              "          (fc_1): Linear(in_features=256, out_features=512, bias=True)\n",
              "          (fc_2): Linear(in_features=512, out_features=256, bias=True)\n",
              "          (dropout): Dropout(p=0.1, inplace=False)\n",
              "        )\n",
              "        (dropout): Dropout(p=0.1, inplace=False)\n",
              "      )\n",
              "    )\n",
              "    (dropout): Dropout(p=0.1, inplace=False)\n",
              "  )\n",
              "  (decoder): Decoder(\n",
              "    (tok_embedding): Embedding(5893, 256)\n",
              "    (pos_embedding): Embedding(100, 256)\n",
              "    (layers): ModuleList(\n",
              "      (0-2): 3 x DecoderLayer(\n",
              "        (self_attn_layer_norm): LayerNorm((256,), eps=1e-05, elementwise_affine=True)\n",
              "        (enc_attn_layer_norm): LayerNorm((256,), eps=1e-05, elementwise_affine=True)\n",
              "        (ff_layer_norm): LayerNorm((256,), eps=1e-05, elementwise_affine=True)\n",
              "        (self_attention): MultiHeadAttentionLayer(\n",
              "          (fc_q): Linear(in_features=256, out_features=256, bias=True)\n",
              "          (fc_k): Linear(in_features=256, out_features=256, bias=True)\n",
              "          (fc_v): Linear(in_features=256, out_features=256, bias=True)\n",
              "          (fc_o): Linear(in_features=256, out_features=256, bias=True)\n",
              "          (dropout): Dropout(p=0.1, inplace=False)\n",
              "        )\n",
              "        (encoder_attention): MultiHeadAttentionLayer(\n",
              "          (fc_q): Linear(in_features=256, out_features=256, bias=True)\n",
              "          (fc_k): Linear(in_features=256, out_features=256, bias=True)\n",
              "          (fc_v): Linear(in_features=256, out_features=256, bias=True)\n",
              "          (fc_o): Linear(in_features=256, out_features=256, bias=True)\n",
              "          (dropout): Dropout(p=0.1, inplace=False)\n",
              "        )\n",
              "        (positionwise_feedforward): PositionwiseFeedforwardLayer(\n",
              "          (fc_1): Linear(in_features=256, out_features=512, bias=True)\n",
              "          (fc_2): Linear(in_features=512, out_features=256, bias=True)\n",
              "          (dropout): Dropout(p=0.1, inplace=False)\n",
              "        )\n",
              "        (dropout): Dropout(p=0.1, inplace=False)\n",
              "      )\n",
              "    )\n",
              "    (fc_out): Linear(in_features=256, out_features=5893, bias=True)\n",
              "    (dropout): Dropout(p=0.1, inplace=False)\n",
              "  )\n",
              ")"
            ]
          },
          "metadata": {},
          "execution_count": 27
        }
      ]
    },
    {
      "cell_type": "markdown",
      "metadata": {
        "id": "WsdTndLDqWQf"
      },
      "source": [
        "* 학습 및 평가 함수 정의\n",
…
